checkpoint_actor.pth (torch_old, 541471 bytes, 6 tensors)

fc1.weight f4 [400, 33]
00000000: 2709 9d3d fe38 893c bcdb dabc 4e8d e8bc
00000010: ae3b 003c 142f b43b acb3 a43c 6e97 a0bc
00000020: 2a97 72bc 92bf 243d 6ab7 a6bc bb55 79bd
00000030: 3d3a ad3d 0f58 3a3d eb0c 91bd d19d 133e
00000040: 13c1 133d b264 33bc 79b3 9dbc 6e44 4a3d
00000050: 5fb2 a1bc 2c20 e03d 0ac6 0c3d 10c0 043e
00000060: 2b29 ebbc 6d30 3f3d 5348 083d 8424 b8bd
00000070: ab7c 55be cc2e 26bc 0c34 9a3d b499 0abc
00000080: 8de5 053e 0add 4abb e1ea 68bd 6a28 db3d
00000090: 5a68 043d b5c2 b83c 4894 17bd 8b74 1e3d
000000a0: 2604 743c c555 e93c 0075 b9bd 3ecd bfbc
000000b0: 490f 1e3c 677f 8bbc f353 16bc 61da c83d
000000c0: 2579 c93b 037b 6d3b f6a1 583c e8a7 6b3c
000000d0: dd26 e63b 4361 99bd 85d8 093d 7514 0f3c
000000e0: a799 88bd a83e 5fbd 88f8 ad3c b36a a8bd
000000f0: 6e9e 12bd 626a 3abe b382 cabc d836 673d
00000100: 7229 ef3c 5eb0 ec3d 1654 7d3d 077c 093e
00000110: e0c8 71bd 828c 643a e921 353c 3128 26bc
00000120: 3ac0 b9bc 09d7 94bc f22e a3bd df9d 22bc
00000130: b698 41bd f33d 213c 2802 053d 873e ba3d
00000140: 54d3 b1bd 4977 babd 6c3d 543b 1866 b0bc
00000150: d83c fdbb ff74 76bc c4cd e03c 8c50 163d
00000160: dc76 ed3b 7642 5b3d 290e 7cbc 3849 19bd
00000170: 645b 5b3c ec26 b73c daeb e73d 66c2 1dbd
00000180: 1d6c 8c3c 408d 47ba 17c7 acbd 797f f9bd
00000190: 19bc debc 34af cc3d b6af bf3c 8ef3 00bc
000001a0: 19c3 493d 1f40 2f3d 7a3d 0dbd c0de 243d
000001b0: e56c a139 66ef 93bb a67a 133c 72f2 48bd
000001c0: c3b5 4f3d 4f5f b43b e8af cdbc f4c4 063c
000001d0: 6389 86bc 0763 bcbc bdcf 143d 9e9a 6f3c
000001e0: a163 43bd 0a7b cb3c f1a2 513d 4a67 3fbc
000001f0: 4f4b 13bd 213d 043e c892 aebd b6d6 c43d
00000200: 338a c2bc 7eef 043d 831a 033d 8bf3 10be
00000210: 49e4 4a3b 4827 2bbc dbb6 9dbc de56 333c
00000220: cda1 0f3c 6248 cc3c 151e 0abc d447 eebc
00000230: beb0 993d 32ee a93c 7934 8e3c 7736 dcbc
00000240: 058d 663d c362 903c b1ff 1f3e 6ea4 b9bc
00000250: d28a 1f3d a0bc a73c c773 493a ab5b 5a3d
00000260: df4e 97bc f862 7dbd 5294 073d 464c 313d
00000270: 4b29 bb3d 369d babd 0f72 00bd 7156 4f3d
00000280: 7cd5 ee3d 9095 e2bc 9df6 06bd efa8 323d
00000290: 81d9 f43d 6f43 e0bc 32eb 2d3e a496 0e3e
000002a0: 2c0b 8bbc b84d 113d 66b3 523c eb23 e3bb
000002b0: 9807 9e3c 6ac8 9abd e54a e83c fb6a 20bb
000002c0: 82e6 87bc 3ab3 b73d d263 dcbd 027a 093d
000002d0: 4b03 8a3d cb18 273c 2e21 68bb d669 d53c
000002e0: c67f ce3c 1c51 c13d 76eb e53c 28a1 20bd
000002f0: 415e ffbc 074a 8ebc e387 bfbc 2591 a93d
00000300: d3b9 483d 9187 01be 163b 11bd 44e4 793b
00000310: 227f f33c 2c9f b3be fd03 fdbc 8bba d33b
00000320: 617b 223d b01c 493d fbb4 763d 647b 0abb
00000330: ec11 4e3d 367e fd3c ad50 0cbb 8b5c 523d
00000340: 00bb 073d 9e96 bcbc 8c8a 84bb d945 0fbc
00000350: 6e8b 54bd b6a1 8e3d 1100 743c 47c0 72bd
00000360: 7a1c 693b f743 263d bdef c8bc c7cd bd3c
00000370: 7bd9 97bc c8bb 223d 6579 ea3c aa8b 92bd
00000380: c497 efbd aa20 16bd ba94 27be 67b8 36bd
00000390: fb37 86bc 5fa1 123d 3a4a 03bf 4f85 cc3d
000003a0: 4561 12be 02c8 dcbb f2bb ff3c e815 b9ba
000003b0: 14d0 17bc a1e1 c63c c3b2 acbb 3096 1cbd
000003c0: ac1e 1b3d a038 5ebb 4fa2 33bd 440a b93c
000003d0: 48ca 20be a582 033d afa8 82bd 7e61 fabb
000003e0: 5263 e3bb 8a82 703c 6f68 723c 13bf c8bd
000003f0: 184b f6b9 1054 5cbd 2da5 bbbd 3a0c b03c
0.07667761 0.016750809 -0.026716106 -0.028387692 0.007826729 0.005498776 0.020105205 -0.019603457
-0.014806548 0.04022176 -0.02035113 -0.060872775 0.08458374 0.045494135 -0.07082542 0.14415671
0.0360728 -0.010949301 -0.019250618 0.049381666 -0.019738374 0.10943636 0.034368552 0.12963891
-0.028706154 0.04667704 0.0332721 -0.0899134 -0.20848338 -0.010142993 0.075294584 -0.008459497
0.13075848 -0.0030954503 -0.056864623 0.10701068 0.03232608 0.022553781 -0.037006646 0.038685363
0.014893567 0.02848328 -0.09055519 -0.023413297 0.009647199 -0.017028524 -0.0091752885 0.098072775
0.0061484748 0.003623665 0.013222208 0.014383294 0.007023676 -0.07489254 0.033653755 0.008732905
-0.06669932 -0.054503113 0.021236673 -0.08223476 -0.03579562 -0.18204644 -0.024720525 0.056448787
0.029194567 0.11557077 0.06184777 0.13426219 -0.05902946 0.0008718447 0.011055448 -0.010141418
-0.022674669 -0.018168943 -0.079679385 -0.009925335 -0.047264777 0.00984143 0.03247276 0.090939574
-0.08682886 -0.09104783 0.0032385243 -0.021533057 -0.0077282004 -0.0150425425 0.027441867 0.03669791
0.007246835 0.05353018 -0.015384235 -0.037423342 0.013388488 0.022357427 0.11324282 -0.03851547
0.017141396 -0.00076122954 -0.08436411 -0.121825166 -0.027189301 0.09994355 0.023399215 -0.007870568
0.049258325 0.04278576 -0.034482457 0.040251493 0.00030789446 -0.0045146225 0.00900141 -0.04905934
0.05071045 0.0055045257 -0.025108293 0.008225668 -0.016422933 -0.022996439 0.036330927 0.014624266
-0.047702435 0.024838943 0.051180784 -0.011682341 -0.03596049 0.12913944 -0.0852409 0.09611265
-0.02374754 0.03245496 0.032007705 -0.14155404 0.0030958822 -0.010446377 -0.019252231 0.010946004
0.008766604 0.024936859 -0.008430024 -0.029086985 0.07504414 0.020743463 0.017359005 -0.02688144
0.05628683 0.017625218 0.15624882 -0.022661414 0.03895075 0.020475686 0.00076847937 0.053310078
-0.018470226 -0.061861962 0.033100434 0.04328563 0.091387354 -0.09112017 -0.031358775 0.050619546
0.11661813 -0.027659208 -0.032950033 0.04361814 0.11955548 -0.027375905 0.16984251 0.13924652
-0.0169731 0.03547451 0.012860155 -0.006931772 0.01929073 -0.07557757 0.028356025 -0.0024477828
-0.016589407 0.08969732 -0.10761227 0.03356362 0.06738909 0.010198782 -0.0035420167 0.026051443
0.025207411 0.094392985 0.028066378 -0.03921619 -0.031172873 -0.017369283 -0.023380226 0.08279637
0.04900534 -0.1264937 -0.03545674 0.0038130442 0.029723708 -0.35082376 -0.03088569 0.0064614466
0.039668445 0.049099624 0.06023119 -0.0021130675 0.05031006 0.030943971 -0.0021410391 0.051357787
0.03313732 -0.023021039 -0.0040448364 -0.00874468 -0.051890783 0.06964438 0.014892594 -0.0592654
0.0035569952 0.04059216 -0.024528379 0.023169411 -0.01853632 0.039729863 0.028622339 -0.07155545
-0.11698869 -0.036652245 -0.16365328 -0.044609454 -0.016384115 0.035798427 -0.51285136 0.09986364
-0.14294918 -0.00673771 0.031217549 -0.0014120908 -0.009265918 0.02427751 -0.0052703335 -0.038229167
0.037871048 -0.0033908263 -0.04385596 0.022587903 -0.15702164 0.032107014 -0.0637983 -0.0076410165
-0.00693933 0.01467956 0.014795407 -0.098020695 -0.00046976726 -0.053791106 -0.09162364 0.021490205

fc1.bias f4 [400]
00000000: 8759 363e b3a8 3dbd 35c8 23be cd77 233d
00000010: 83f0 23be d80d 9d3d 3761 6f3d 0c3f 053e
00000020: 16b1 6ebd 75f6 fdbd 26f0 203e 13b7 fabd
00000030: 0627 ed3d 350e 12bb 959c 913c dfb4 19be
00000040: c215 3bbe 725b b0bd 6135 e7bd e2f4 15be
00000050: c3ee 20bd e3ca 293e e29b b13d 9214 0b3e
00000060: 23c9 febc 9a69 8ebd a6df 053e 045c 3d3e
00000070: 2a02 66bd 280f eebb e316 4d3d 11cf 193d
00000080: 93f9 a53b f070 0bbe 9cf7 723c f034 13be
00000090: cc39 d43d d76f 1a3e a88b c8bd 62fc 83bd
000000a0: cccc ffbc 8f75 04be 9b65 c23c 05a8 fa3d
000000b0: 53ea 4c3e ee63 f3bb 7725 8f3c 6907 ff3b
000000c0: 8392 26ba e7ab a0bc f8c1 23be c1a3 313c
000000d0: 205e 65bd 992b 653d 0e68 0fbe d750 fcbd
000000e0: 58f7 0a3e cf77 0cbe 62da cebd ab7b 21bd
000000f0: 2f9d 023e 2923 ad3c 7b97 e5bd 280b d53d
00000100: 31bc 593e dfce 4d3c d60f 26be 2a0e d33d
00000110: e2c5 3c3d 3c1c 9f3c 5146 43bc 3e0f eb3c
00000120: f8ba 86bd bb17 e23d db65 d03c 2fc4 08be
00000130: e0bd 1a3e 94a6 72bd 2267 8ebd 7ca9 9f3d
00000140: 27d1 f03d 3a22 1e3e 3a4b 17be 7235 e43d
00000150: e14e df3c 7a99 aebd 284f 1abe 5c85 77bd
00000160: ad91 0e3d 4081 d53d 70ba 253c c068 4c3e
00000170: 2492 813d 0f6c ed3c c3e1 0a3e abcf 51bd
00000180: 9a51 ba3d 0a5f eebd d817 a33d 1864 17bc
00000190: deee 023d 2e90 b8bd 7e56 5d3d 53e5 513d
000001a0: e6fb d43c b844 08be a5bb 1fbe 1576 f6bd
000001b0: 357b 25be 011d 90bd f176 c2ba f6df f7bd
000001c0: 88a7 5a3d 4f16 243e 7feb 9ebc 741a 733e
000001d0: 0d92 94bd b1f8 84bd e4cb 88bd c204 b43b
000001e0: f01a 263e b736 dbbc d336 8abd c66c 043e
000001f0: 18f5 693c e7ec acbd 5ebc 0fbe a294 2a3e
00000200: dd8d f93d 6868 cbbd 62d3 19bc f899 ac3a
00000210: 4006 debc bd55 833b 5790 433e f255 853d
00000220: 0ddd 243e bd50 3f3d b6a4 21bd c1a4 123d
00000230: 9101 13be 9e21 0c3d 4d60 243c 1832 01ba
00000240: 28ef 37be 2028 723d 750b 643d 3cfe 26be
00000250: 204c 983d 76c3 3ebd e823 9b3d 6d9e 053e
00000260: fcf9 c93d cac6 9abd 8f6c 8d3d b60b 0dbe
00000270: aee1 fe3d 8847 993d dcf7 8c3d 89aa 4bbe
00000280: 95ab 4fbe 6a94 d3bd 8f57 0f3e 4653 dd3d
00000290: c5f2 8f3d f34f 41be 6d2e 14bd b1b2 c0bd
000002a0: 7de4 97bd 0ffc 293e aa4d 4ebe 28ed 61bd
000002b0: af3f 033d 92ad b13d fc10 5bbe 3cff 9b3d
000002c0: 18d1 a63c 31ef 66bd fe53 abbd abd6 00be
000002d0: c5a8 babd 39d5 373e 8e34 03be 6941 3dbe
000002e0: b15f 243d 86b3 9f3d 0fb6 73bd ef3d 62bd
000002f0: d6cd f13c 2f69 d5bd e9d6 85bc 2fb0 3bbd
00000300: 6222 70bd 134a 9a3d 95f0 a2bd 10d6 12bd
00000310: 3f18 153e 0ee0 2a3e 9abc 273e c925 81bc
00000320: c453 3fbd 862d 383e f313 d5bd 9f73 483e
00000330: c563 e83d 5511 ce3d 0443 01bc 950b a9bc
00000340: fd06 fbbd e87e fcbd 6283 13bd 8845 bb3d
00000350: 34c3 00be 31f3 75bd 8b5a 7c3d 730d 49bd
00000360: 6cb6 1cbe 8df5 ccbc ce41 d5bd e81a bfbc
00000370: b7af 3abe 50ab 19be f245 8ebd 6fc9 1b3d
00000380: b0e5 a3bd 1ab4 31be eefe 24bd 7726 79bd
00000390: 8731 003e 2033 353d cdac b53d 1abd d63d
000003a0: 07cb 25be 92a2 4cbd 145c b43d 9eaf edbc
000003b0: 5557 edbd 4b5b ca3d b823 32bd 7541 f8bd
000003c0: 50cf 6cbc cf07 46be 978b ac3d ae67 663e
000003d0: e6c0 04bd 0c3f de3d 8e79 afbd 5125 a4bd
000003e0: 29c5 91bd a2fc e0bd 9cba eabc c3f2 673d
000003f0: 6a89 91bd b169 9a3d f14e 9b3d ca4e 1f3d
0.1780759 -0.046303462 -0.15994342 0.039909173 -0.16009717 0.07668656 0.05844232 0.13012332
-0.05827435 -0.124005236 0.1571661 -0.1224195 0.11579709 -0.00222863 0.01777486 -0.15010403
-0.18270019 -0.08611192 -0.11289478 -0.14644197 -0.0392902 0.16581301 0.086723104 0.13582066
-0.031101769 -0.06953736 0.13073596 0.18492132 -0.056154408 -0.0072649904 0.050070655 0.03755099
0.005065152 -0.13617301 0.0148295425 -0.14375663 0.103625864 0.15081726 -0.09792262 -0.064446226
-0.031225584 -0.1293547 0.02373009 0.122390784 0.20011263 -0.007427684 0.01747392 0.007782866
-0.00063542294 -0.01961322 -0.15991962 0.010842265 -0.055997968 0.05594978 -0.14004537 -0.123201065
0.13570917 -0.13717578 -0.10100247 -0.03942458 0.12755273 0.02113493 -0.11210533 0.104025185
0.21263196 0.012561529 -0.16216978 0.10305436 0.046087153 0.019422643 -0.01191862 0.028693791
-0.0657863 0.110396825 0.025439193 -0.13356088 0.15111494 -0.059240893 -0.06953265 0.077959985
0.11758643 0.15442744 -0.1477479 0.111430064 0.027259292 -0.08525367 -0.15069258 -0.060429916
0.034806896 0.10425043 0.010115251 0.19961834 0.06326702 0.02898219 0.13562684 -0.05122344
0.090975955 -0.11639221 0.07963532 -0.009240173 0.031966083 -0.09011875 0.054037564 0.05124409
0.02599902 -0.13307464 -0.15598924 -0.12034241 -0.16160281 -0.07036782 -0.0014836473 -0.12103264
0.053382427 0.16024135 -0.019399403 0.2374056 -0.072544195 -0.064927466 -0.06679514 0.0054937312
0.16221213 -0.026759489 -0.06748738 0.12932119 0.014279626 -0.08443623 -0.140367 0.16658261
0.121852614 -0.09932023 -0.0093887765 0.0013168445 -0.02710259 0.0040080235 0.1909803 0.065105334
0.16099949 0.046707857 -0.03946372 0.035801653 -0.14356066 0.034211747 0.0100327255 -0.0004928424
-0.17962325 0.059120297 0.05567499 -0.1630792 0.07436395 -0.046573125 0.07575208 0.13048716
0.09862134 -0.07557447 0.069054715 -0.13773999 0.12445389 0.07484347 0.06883213 -0.19889273
-0.20280297 -0.10331042 0.13998245 0.10806899 0.070287265 -0.18878154 -0.036177088 -0.09409083
-0.074166276 0.16600059 -0.20146814 -0.05515781 0.032043155 0.08675684 -0.21393198 0.076170415
0.020363376 -0.056380454 -0.083656296 -0.1258189 -0.091142215 0.17952432 -0.12813017 -0.18481983
0.04013032 0.07797913 -0.059499796 -0.055234846 0.029517096 -0.10420453 -0.016337829 -0.04582232
-0.05862654 0.0753366 -0.07956044 -0.035848677 0.1456003 0.16687033 0.1638054 -0.015765088
-0.046710745 0.17986116 -0.10404196 0.19575356 0.113471545 0.100618996 -0.007889513 -0.020635406
-0.12257192 -0.12328893 -0.03601397 0.091441214 -0.12574464 -0.06004638 0.061609786 -0.04908509
-0.15303963 -0.025019431 -0.10412942 -0.02332826 -0.18231092 -0.15006757 -0.06946935 0.0380339
-0.08002794 -0.1735386 -0.040282182 -0.0608277 0.12518893 0.04423821 0.0887085 0.10485287
-0.1619073 -0.049959727 0.08806625 -0.029014405 -0.11588923 0.09880694 -0.043491095 -0.1212186
-0.014453724 -0.19338916 0.08425062 0.22500488 -0.032410525 0.10851869 -0.085681066 -0.0801493
-0.071176834 -0.10985686 -0.028653435 0.056628 -0.07106288 0.0753969 0.07583416 0.0388935

fc2.weight f4 [300, 400]
00000000: f518 20be 0031 07be c0d8 cb3c 1e70 c03d
00000010: 7778 8abd 3eda 5bbd 03d5 bdbd 2715 413c
00000020: bf0c 073c 7383 f63d 1aba 6c3e 3031 b1bb
00000030: 291a 36be 5cc9 b9bd 18f0 1ebe 2268 f2bd
00000040: f17a 10be 9982 dc3d 2e2f 003c 335b c63d
00000050: 5bd1 adbd e0c5 83bd 5670 263e 9c1d bd3d
00000060: 7849 4bbe efaf 7bbe 2ecd ac3c 2f02 afbd
00000070: d3ef 3c3d 1ac1 52be d3d0 d5bd d421 773d
00000080: 3fce 11bc d55c 4a3d d673 7dbe b5f6 143e
00000090: 738b d83b 5a38 65be bbc9 6f3c a1da 96bd
000000a0: 335c 633d 2afa ba3c 0da0 46bd 8c03 223e
000000b0: c253 2ebe e555 35bd bbc8 dabd 7ace 03bd
000000c0: 427d 99bb 8de8 2ebd 8bee 35bd c938 593d
000000d0: 257e 06be 4187 893c 12bc e63c 8245 a1bc
000000e0: 7cd4 b83c 5823 363c 9423 98be f464 793d
000000f0: 24cd b23d ab0b 2dbe 754c b6be 1b5d b5bc
00000100: 0886 84bd 9213 e73d ec41 beba bb6c f33c
00000110: 171d 9b3a bf32 3b3e 5aea 943d 6c82 393e
00000120: 8dea 50bd 070f af3d dd17 923d aaf2 6a3c
00000130: 32bd 863d b42f e73d 96e3 c43d 4b2e 8bbd
00000140: b202 5bbc 3160 983d ebf1 20be a7cb cfbd
00000150: af8a ee3c fabf 89bd 6d8c 4a3d cefa 3d3e
00000160: 16ca 5fbc 3a8c e03d 7555 afbd 39f6 7abe
00000170: 1905 033b dc95 14be fdbd 7d3d 5cc5 413c
00000180: 8975 b93b 3c48 a73d ea47 633d dc99 8ebc
00000190: 65ad 4f3d 9e37 853d a648 473d d7f3 323e
000001a0: 5352 b03c a2a1 f33d 565b 763c 4505 30bd
000001b0: 5b3c fe3d d55e 1abd 57bb e13c 130b 01be
000001c0: ec51 933d f2a0 adbc 3e5d 5c3d ee17 e7bd
000001d0: 4625 56bd 351e 3fbd 7c93 ea3d 8b5a 28bd
000001e0: e584 2a3e dfb2 ba3d a0ab 1f3c 0386 1dbd
000001f0: 555f 96bd 79b5 db3d 8a93 b6bd ee9f c3bb
00000200: b7ae 243e 21bd 8b3d 0405 57be 46eb 643d
00000210: f22f 963d 217f 433e beb6 c83d 0627 32be
00000220: 8817 2b3b a15d 5f3d 03d4 bd3d 48cf fa3d
00000230: 5001 5abe de83 df3c 130e 713d 4769 533e
00000240: bc7a ce3c 9fe7 afbd da28 afbd 27ce bd3d
00000250: 44e6 ff3d ad94 123e 4402 a43c cac4 48bd
00000260: 0ab9 d83d 3b96 e0bd cd02 f63d 93db 9fbe
00000270: 9ab5 0dbe d9a0 7fb9 7b32 9b3d d5be 86be
00000280: ad81 87be 9af5 abbb ac93 1dbd cde3 ecbb
00000290: 2af0 fd3c d5f5 93bd b3d0 913c 94e7 2f3c
000002a0: c23f fb3d bb7e ba3d aa34 cdbd 6e10 bdbd
000002b0: 98ef e63d 59d7 c43c 7cb5 a5bd 02d2 3e3d
000002c0: 50df 1a3d 0c57 e13d 52fd 2fbd e0e2 2e3d
000002d0: 7765 823d 1a7f 733d eab8 01bc 29f0 2fbe
000002e0: c2eb f9bd fe06 89bd ea8e 38be 0c8d 8a3d
000002f0: fd45 70bd 3b0e f7bd 545a 91bc 1fc2 0ebc
00000300: 644d 1c3d 19b1 503d 39ad e63d 31be f2bd
00000310: 8b89 fa3c c2a3 083e d4d3 47be 23a0 3e3d
00000320: 0b18 f13c 434b 52bd 65d8 633d b8e5 39bd
00000330: a5fa 5d3c 8f56 06be 3afc 233d 132c 43be
00000340: 8a8b ae3d 8696 203d d09f 55be 624e d4bd
00000350: 4fb7 4c3e c282 08bd d799 6a3d afd6 b0bd
00000360: 5572 7abe d9b4 78bd 1ea2 a3bd 9995 93bd
00000370: 67aa 77be d26e 0e3d 03db 893d e192 d93c
00000380: 25dd 9bbe cf19 8cbe 6840 5dbd e353 413d
00000390: 0348 053d c54e b1bd b681 4dbc 32c4 153e
000003a0: a3e0 3abd 1b0a 6a3b 182a 1c3e e308 2dbd
000003b0: 1535 e73c 763f aa3d 0ffb fb3d 8c99 debc
000003c0: 167c a9be 8079 a9bc fc7b c33d e8e9 15be
000003d0: 1df1 8dbd a5e3 d93d 38be 2abc e437 cbbd
000003e0: 642c 5ebe 2d68 f3bc fa2e fb3c f25b a73d
000003f0: 6804 ff3c ab8c afbd 275d 0a3d 8a78 a1bd
-0.1563452 -0.13202286 0.024883628 0.09396385 -0.06761258 -0.05367493 -0.092691444 0.011784828
0.008242785 0.12036791 0.23117867 -0.005407475 -0.17783417 -0.090716094 -0.15521276 -0.11836268
-0.14109398 0.10767097 0.0078237485 0.096853636 -0.08487197 -0.06434226 0.1625379 0.09234163
-0.19852245 -0.24578832 0.021093931 -0.08545338 0.04612715 -0.20581475 -0.10440221 0.060334995
-0.008899271 0.049404938 -0.24751219 0.14547236 0.0066084205 -0.22384778 0.014635499 -0.07365919
0.05550785 0.022824366 -0.04849248 0.15821666 -0.17024139 -0.04427137 -0.106828175 -0.032179333
-0.0046841213 -0.042702246 -0.044416945 0.05303267 -0.13134058 0.016788127 0.02816585 -0.019686464
0.022562258 0.011116825 -0.29714644 0.060887292 0.08730534 -0.16898982 -0.35605207 -0.022139123
-0.06470877 0.112830296 -0.0014515496 0.029714933 0.0011834231 0.18281077 0.072712615 0.18116158
-0.051004935 0.08547788 0.07133458 0.014340082 0.06579055 0.112883955 0.09613721 -0.06795939
-0.013367342 0.07440222 -0.15717284 -0.101462655 0.029118864 -0.0672607 0.049450327 0.18552706
-0.013659021 0.10964246 -0.085612215 -0.24507989 0.0019992052 -0.14510292 0.061948765 0.011826839
0.0056597632 0.081680745 0.055488504 -0.01740735 0.05070247 0.06504749 0.048653267 0.1747583
0.02152363 0.118960634 0.015036425 -0.042973775 0.12413856 -0.037688095 0.02755515 -0.1260188
0.0719336 -0.021194909 0.05379986 -0.11283861 -0.05228164 -0.046659667 0.11453912 -0.041101974
0.16652258 0.09116148 0.009745508 -0.03845788 -0.07342402 0.107279725 -0.089148596 -0.005969993
0.16082273 0.06823183 -0.20998007 0.055888437 0.073333636 0.19091465 0.0980048 -0.17397699
0.0026106555 0.05453265 0.09268954 0.12246567 -0.21289563 0.027284559 0.058851313 0.20645629
0.025205009 -0.085891 -0.08552714 0.09267836 0.124950916 0.14314528 0.020020612 -0.049015798
0.105821684 -0.10966154 0.12012253 -0.3122221 -0.13838807 -0.00024378615 0.07577988 -0.26317468
-0.26466122 -0.005247784 -0.03847091 -0.0072293044 0.030998308 -0.07224623 0.01779971 0.010736365
0.1226802 0.09106203 -0.100198105 -0.09231649 0.11276168 0.024028467 -0.08091256 0.046586998
0.037810624 0.11002931 -0.042966194 0.042696834 0.06367009 0.059447385 -0.007917622 -0.17181458
-0.1220317 -0.06690787 -0.18023267 0.06765184 -0.058660496 -0.12063261 -0.017743267 -0.008713274
0.038159743 0.050950143 0.11263508 -0.118526824 0.030583164 0.13343719 -0.195144 0.046539437
0.02943041 -0.051341306 0.05562629 -0.045385092 0.013548528 -0.13118957 0.040035464 -0.19059782
0.08522709 0.03920605 -0.20861745 -0.10366513 0.19991802 -0.033327825 0.05727562 -0.08634698
-0.24457677 -0.060719345 -0.07989906 -0.07206268 -0.24186097 0.034773655 0.06731226 0.026559295
-0.30442157 -0.2736344 -0.0540165 0.04719914 0.03253938 -0.08657602 -0.0125431325 0.14625624
-0.045624387 0.003571159 0.15250432 -0.042244803 0.028223554 0.083128855 0.12303745 -0.027172826
-0.33102483 -0.020687819 0.095451325 -0.1464001 -0.06930754 0.10639123 -0.010421328 -0.0992277
-0.21696621 -0.02971276 0.030662049 0.08171834 0.03113003 -0.08571752 0.033780243 -0.07884319

fc2.bias f4 [300]
00000000: 0d4f 7a3d bc35 b5bc b83c 813c 6a2a 4d3c
00000010: 8125 093c 8ab6 fbbc 2a9d 1b3d a848 2b3c
00000020: c00b 173c 51ce 9ebd c476 b43c 723b 253d
00000030: 3c94 043c c699 983c c792 54bd 38b8 483d
00000040: 85e6 afbd 6c3e d03a 81f7 68bd c6f1 413c
00000050: 0d0a 91bc 4c7e 7dbc f1f5 553d 1ee2 f8bb
00000060: 019c d8bc fbb5 68bc 484c 183c 9e0d 20bd
00000070: 746f 0dbd ae40 15bc f4fb 2f3d 28ba 403d
00000080: d820 0b3d 9053 803c 0e49 0bbc d959 bbbc
00000090: a0ce c6bc c9e5 70bc 67cb 643d 5641 cdbc
000000a0: 76da ff3a 1139 833a 4f25 ed3c 1b3b 18bc
000000b0: 8d9c 45bc 9fe8 323d 86e0 ee3c 7646 d83c
000000c0: 75c3 1abd ba38 99bd 1637 45bd bbce 173c
000000d0: ef66 c93c c80f 423d 48ec 5b3d 92d4 923b
000000e0: d52e 2b3c 551b 1c3c 2a45 e2bb 1e2d 83bd
000000f0: dc3e babd 915a 74bb 0a55 a1bc 6d7e fb3c
00000100: bdba 67bc 899c e0bc 4328 bc3c a4e6 cc3a
00000110: 314b 313a 30a7 de3c b820 d13c 250e 2ebd
00000120: e2c3 8abd bb65 323d 13d5 76bc 0777 2abd
00000130: 774d 653d d942 9b3d 802b edbb 9e90 7f3c
00000140: a90e f03c b75a 9bbd d27e f6bc 6f05 c23c
00000150: 8541 ed3c 3c2b e23c f1c9 e4bc 3d78 cfbc
00000160: 29df 03bd ca07 253d 9923 3c3d a125 7c3b
00000170: 1cac c1bc 9ab4 3bbd 2b8f dbbb 5e21 23bc
00000180: 68ac b1bc d61f 163d 4a6d 8cbc d999 6c3c
00000190: 5936 463d 32f8 4ebd 1f10 f0bb a1f7 3f3c
000001a0: 1fe8 8cbc 625d bf3c 6d57 993d 6d40 74bc
000001b0: 5366 ec3c 8b13 9e3d 162d 2d3d 0567 343d
000001c0: f07d 543d 7b59 9d3d 3c74 213d 2cd8 2bbc
000001d0: 469e 9fbd f0f4 e4bc fc40 b7bc ee3e 50bd
000001e0: eb20 64bd b2d1 743c 939a 0f3d 85aa aa3c
000001f0: c7f8 2f3d 2507 3ebb 147a a13c e3e5 373d
00000200: b98f 75bc f83d 993d 3844 2d3c 2592 23bd
00000210: 005a 6b38 7b4c 8ebc b97d 7c3d 7363 18bd
00000220: 925d 59bd 1fbc 823d 726f e6bc a9c0 8cbb
00000230: 8f2e ba3b 0066 1c3c d769 0fbd 88e2 40bc
00000240: 55ea ecb8 b399 4d3b 72a0 633d 8e48 573c
00000250: 61be 8a3d 9316 993d 2422 13bd de6d af3a
00000260: 1f05 95bd 0ac9 41bd e348 2e3c 8366 bfb9
00000270: e413 48bd d0c8 6d3d d720 933d 56e3 ca3c
00000280: 42da 4bbd 2f8c 46bc 8ff0 1d3d d096 993d
00000290: e8e7 2dbc 05fb 543d 8418 bfbd d46f 19bc
000002a0: 0b00 1b3d b90b 94b9 659d 20bc e66e 573d
000002b0: 18f2 1cbc e88f 1d3d 36bd c83c 54c5 9e3c
000002c0: b733 903d 4660 2b3d 9de0 7f3d ceea 43bb
000002d0: ad3d 373d 8ab5 323c 646d 2a3d 6fae a83c
000002e0: ceca a53c 9331 25bc 78a2 443c cbb9 113d
000002f0: 84f1 b5bb 6344 723d eb1b 2e3d 04f3 803a
00000300: 4c80 ee3a 23ec edba 4f99 5b3d f775 dd3c
00000310: c387 60bb 7958 75bd 77a1 483d 7b43 673d
00000320: 524c 12bd f87b 123d 2eac b53b ab4e a93d
00000330: 4c48 bdba f158 553c 6e5c d8ba a42c 8c3d
00000340: 1b9b 95bd 23fa 99bd 3358 863d f000 edbc
00000350: 25f8 c0bc 4bed 5d3d a544 b63b 2b9a 9c3d
00000360: d9da 9dbd bdeb 7bbc 56ea 763d e992 673d
00000370: 8b76 d3bc 7135 3e3d 92ef 963b a40e 883d
00000380: ba55 d2bc e747 33bd 59d2 9e3d 29bd 343d
00000390: 5ab6 013c 7150 b9bc 6c1f 2c3d 38e5 bf3d
000003a0: 1be6 093d 67d3 21bd e40a 61bc ead7 6dbc
000003b0: b2e5 58bb 1e20 013d a20c cd3d cac3 43bd
000003c0: e92c d03c 04d5 0cbd 1122 833d de10 173d
000003d0: f16a 76bd 2337 fe3c 0f67 c43b 87ce ec3c
000003e0: ceaa ca3c b005 923c 8916 213d 5aae 8b3c
000003f0: 1227 8a3d 315b 263d c614 21bd 36d3 603d
0.061110545 -0.02212035 0.015776023 0.012522319 0.008370758 -0.03072669 0.03799168 0.010454334
0.00921911 -0.077541955 0.022029288 0.040339895 0.008091982 0.018628012 -0.05189779 0.04900381
-0.0858889 0.0015887744 -0.056876663 0.011837428 -0.017704988 -0.015472006 0.0522365 -0.0075953146
-0.026441576 -0.014203544 0.009295531 -0.039075486 -0.034530118 -0.009109659 0.04296489 0.047052532
0.03396687 0.015664846 -0.008501304 -0.022869991 -0.024268448 -0.014703223 0.055858042 -0.025055569
0.0019520062 0.0010011514 0.028948454 -0.009291436 -0.01206125 0.043678876 0.029159795 0.026400786
-0.03778406 -0.07481523 -0.048148237 0.009265597 0.024585215 0.04737833 0.053692132 0.0044809068
0.010448177 0.009528001 -0.0069052177 -0.0640509 -0.09094021 -0.0037285427 -0.01969387 0.030699933
-0.014143643 -0.027418392 0.022968417 0.0015632701 0.00067632186 0.02717933 0.025528297 -0.042493958
-0.06775643 0.04355405 -0.015065449 -0.04161742 0.05598208 0.075811096 -0.0072378516 0.015598444
0.029303866 -0.07585662 -0.03008977 0.023684232 0.028961906 0.027608506 -0.027928324 -0.025325889
-0.032195244 0.04029063 0.045932386 0.0038474577 -0.023641638 -0.045826532 -0.0067004166 -0.009956686
-0.021688655 0.036651455 -0.017141957 0.014440977 0.048391674 -0.050529666 -0.0073261405 0.011716754
-0.017200528 0.023359958 0.07487378 -0.014907938 0.028857386 0.07718571 0.042279325 0.04404356
0.051877916 0.07683083 0.03941749 -0.010488551 -0.0779386 -0.027948827 -0.022369854 -0.050841264
-0.055695456 0.014942573 0.035059523 0.020833263 0.042961862 -0.0028995958 0.019711532 0.04489697
-0.014987879 0.07482523 0.010575347 -0.039934296 5.6112185e-05 -0.017370453 0.061643336 -0.037204217
-0.05306775 0.063835375 -0.028129313 -0.004295428 0.0056818197 0.009545803 -0.035013046 -0.011772759
-0.00011297005 0.003137213 0.055572934 0.013139857 0.06774593 0.07475009 -0.03592123 0.0013384183
-0.072763674 -0.047310866 0.010637495 -0.00036506736 -0.048847094 0.058052838 0.07183998 0.024766605
-0.049768694 -0.012118383 0.038559493 0.07499468 -0.010614373 0.051997203 -0.09330848 -0.009365041
0.037841838 -0.00028237494 -0.009803151 0.052595995 -0.009579204 0.038467318 0.024504285 0.019381203
0.07041114 0.04183986 0.062470067 -0.0029894593 0.044736553 0.01090754 0.04160823 0.020590989
0.020238306 -0.01008262 0.012001626 0.035577577 -0.0055524725 0.05914725 0.042507093 0.0009838049
0.0018196194 -0.0018152039 0.053613003 0.02703379 -0.0034260608 -0.059898827 0.04898211 0.05646084
-0.035717316 0.035762757 0.005544207 0.08266958 -0.0014441102 0.013021694 -0.0016507038 0.06844452
-0.07304975 -0.07518413 0.065597914 -0.028931111 -0.023555825 0.05418138 0.0055623823 0.07646593
-0.077077575 -0.015376029 0.060282074 0.05653659 -0.025813362 0.046437684 0.0046061957 0.066434175
-0.025675643 -0.043769743 0.077549644 0.04412571 0.007917011 -0.022621365 0.042022154 0.09369892
0.03366671 -0.03950825 -0.013735507 -0.01451681 -0.0033095893 0.03152477 0.10012175 -0.04779414
0.02541204 -0.034382835 0.06402982 0.03688132 -0.06016058 0.03103215 0.005993731 0.028907074
0.02473965 0.017824978 0.03932813 0.01705091 0.06745733 0.04061431 -0.03932645 0.054888926

fc3.weight f4 [4, 300]
00000000: 30c3 1fbf d546 74bd 19c2 82be 67f7 7ebd
00000010: dc4c 023e e812 263e 6702 7cbe 9908 ce3d
00000020: 144c 203d 027b b33d 92e3 4d3e 96fb df3d
00000030: 7f48 1ebe 2ad0 fe3d 40a7 2c3c 0cec b4be
00000040: 9250 acbd 93d0 0e3c 6def 643e fa4a 153e
00000050: 80a4 b2bd f7d9 e93d 22b5 6ebd f1b3 08bf
00000060: 3a4a cdbd 5727 473e 314b 753d d0e9 193e
00000070: e297 023e f19a 953d 0614 1bbe 2866 2ebe
00000080: 488d ea3d c347 5ebe 9397 53bd 1fe9 1b3e
00000090: dbda f0bd 7459 19be d5e8 2ebd 7bec ffbd
000000a0: fab8 80be a943 f2be 412e d83d deb7 12bd
000000b0: a4b1 dd3c 2b95 133e 989e 963d b6f5 843e
000000c0: 23df bbbd cf78 aabe 9d7a 70bd 8dcd bebc
000000d0: f114 5d3e dbc5 f0bd 58c2 cfbd e0dd 833d
000000e0: da8c 4cbe 3026 033d 7485 c4bd 26fa 8fbd
000000f0: fab0 8bbd a76e c7be ad56 92bd 3236 6fbe
00000100: 5853 3a3e 9554 fbbd 5dcc c93d 6246 883e
00000110: eb00 3abc a53c a13d d0a0 b03c 1fe5 053d
00000120: d3c0 653e 384a e53b 8d4a 053e f429 913e
00000130: a7e3 c03d 0100 20be 48cc babe 4793 40be
00000140: 1f3b f13c 5942 853e 9a6a f0bd 8b5e 233d
00000150: a9a6 653d d26c a13e 1412 0cbe ce17 393c
00000160: 4389 0cbf ec2f 47bd 7e8f e93c b257 e5be
00000170: c5bd ccbe 87fe c53c 82bc 87bc a5a0 a7be
00000180: 7e5c 9dbd 5075 8e3d a4de 943d 0aa4 f9bd
00000190: 1ed5 993d 7009 863d e0a8 1ebe d9f6 d7bd
000001a0: 7d49 903d e9ac ddbe ed28 e9be 8fed 683e
000001b0: 7c98 8cbc 45fb a2bd 1567 873d ad26 b9bd
000001c0: 781b d4be 207b 033b be08 53be b759 903e
000001d0: 3ea0 a33e 6f13 fbbc 2e9b 9a3e 505f 623e
000001e0: 126f 5b3e 9134 993d cdc0 473d a9d1 133d
000001f0: d828 01be 8bc4 3b3d 64fe f23d a1e7 04bc
00000200: 9ed8 963d 3b6b a53d 0e0f 01bf 52e4 3d3e
00000210: d15c 963e 7eff 93bd 12fb 833e b323 f3be
00000220: 1816 b7be bbba 4dbd 3ab1 e2bd 7ce8 60bd
00000230: 727b a73d 44ee 9cbc 9c3a 8c3e b689 b7ba
00000240: 9e78 08be 15f1 893d 7a62 213c d2f8 0cbf
00000250: 5793 a33d db64 f4bd 1de9 c03d b857 df3c
00000260: 2154 d3bd 7dc9 a8bd aedb 49bd aef6 f9bd
00000270: 56c2 e0bd b837 813e fc0f 6fbd 9389 8dbe
00000280: 9886 993c 6159 07be 4d8d 31bd b69c 473d
00000290: 4e69 523e 8d51 cd3e 18ae b73e 2788 12bd
000002a0: 9a5d bebd 5bcf f83c 9a8c aa3c 27b3 e93e
000002b0: 00de 5fbe 27d8 76bd 1e2a 333e b165 823d
000002c0: 8397 4dbe 232e e2bd abbd 3d3e c729 9bbd
000002d0: 126c 1fbe 07be 263d 33e4 5f3c 4c19 ecbd
000002e0: b72a 113e 3fa3 83be dc42 603d 8b3a a83c
000002f0: 0061 d8bc f1ef f93c f7e0 ccbd 3726 373e
00000300: b47e 2d3c 90e7 ab3d 0045 703c ec08 c43d
00000310: 31ee 9b3d 38f9 b13e 9338 37be edbb d4be
00000320: 14c1 d4bd 24a9 db3d 4386 943d c188 c7be
00000330: be29 1e3d f7f5 a1bd b80c 473e eafe 14be
00000340: a686 d03d 771d 35be f34d 653d e27a 123e
00000350: 00c8 8e3e 0c93 fe3d 95c1 b7bc 47a7 b1bd
00000360: e470 833d 7bbe 8b3d b633 713d a37f 45be
00000370: 5178 06bf 39b8 f3be 9fd0 453e ce73 0bbd
00000380: 5ee0 6d3e 932a 3abe c61e e5be 65b9 633e
00000390: ae14 a53d d146 e3bd 99c4 87bd 2bbf 8cbd
000003a0: 29cd 1a3e 8fb4 ac3c f469 a43d 2465 b33e
000003b0: 0502 6cbd b599 943e d13f b7be f653 b5bd
000003c0: 6f3e e7be 6e50 2bbe 019a 8abd f713 53be
000003d0: e487 a23d b429 473e 0506 d4bd 6a76 c43d
000003e0: 89ca bc3d 8b80 b9be dffb 883c 6cbc 46be
000003f0: 963a 98bd 8595 d13d 21f6 6ebe 7c46 74be
-0.6240721 -0.059637863 -0.2553871 -0.06224766 0.12724632 0.1621815 -0.24610291 0.100602336
0.039135054 0.08763696 0.20106342 0.10936658 -0.15457343 0.12442048 0.010537922 -0.3533634
-0.08413805 0.00871672 0.22356959 0.14579383 -0.08722782 0.114185266 -0.05827821 -0.5339957
-0.10023923 0.194486 0.05988616 0.15030599 0.12753251 0.07304943 -0.15144357 -0.17031157
0.114527285 -0.21707062 -0.051658224 0.15225647 -0.11760493 -0.1497553 -0.042702515 -0.12496277
-0.25141126 -0.47317246 0.10555697 -0.03581988 0.027062245 0.14412372 0.07354468 0.25968713
-0.09173419 -0.33295295 -0.058710683 -0.023291374 0.2159002 -0.11756488 -0.1014449 0.06438804
-0.19975606 0.03201884 -0.09595767 -0.07030134 -0.06820865 -0.3895161 -0.07145438 -0.23360518
0.18195856 -0.12271992 0.09853432 0.26616198 -0.011352758 0.07872895 0.021561056 0.03268921
0.22436838 0.006997373 0.1301672 0.2835232 0.09418421 -0.15625001 -0.3648398 -0.18806182
0.029447136 0.26027182 -0.11739083 0.039885085 0.056067143 0.31528336 -0.13678771 0.011297179
-0.54896945 -0.048629686 0.028510805 -0.4479347 -0.39988533 0.02416922 -0.01656938 -0.3273975
-0.07683657 0.06955969 0.07269028 -0.12189491 0.07511352 0.06544769 -0.15494108 -0.10545129
0.07045267 -0.43295982 -0.45539036 0.22746871 -0.017162554 -0.07958082 0.06611458 -0.0904058
-0.41427207 0.0020062402 -0.20608804 0.28193447 0.31958193 -0.030648915 0.30196518 0.22106671
0.21429089 0.07480729 0.048767854 0.03608862 -0.12613237 0.045841735 0.118649274 -0.008111865
0.07365535 0.08077093 -0.50413597 0.18544129 0.29367688 -0.07226466 0.2577749 -0.47488174
-0.35759044 -0.05022691 -0.110689595 -0.054909214 0.08177842 -0.019156583 0.27388465 -0.0014002833
-0.13327262 0.06735436 0.009850139 -0.5506717 0.07987087 -0.11933299 0.09419463 0.027263507
-0.10318781 -0.08241556 -0.04928177 -0.122052535 -0.10974567 0.25237823 -0.058364853 -0.27644023
0.018740937 -0.13217689 -0.043347646 0.048733436 0.20547983 0.4010128 0.3587501 -0.035774376
-0.09295197 0.030372312 0.020818997 0.45644495 -0.2186203 -0.060264733 0.17496535 0.06367052
-0.20077328 -0.11043956 0.18529384 -0.07576328 -0.1556857 0.040708568 0.013665247 -0.115282625
0.1417645 -0.25710484 0.054751262 0.020535728 -0.02641344 0.03050992 -0.10003846 0.17885672
0.01058929 0.083937764 0.014664888 0.09572014 0.07613791 0.3476045 -0.17892675 -0.41549626
-0.10388389 0.107256204 0.07252171 -0.38971522 0.038614027 -0.07908242 0.19438446 -0.14550367
0.10181932 -0.17687021 0.05598254 0.14304689 0.27886963 0.12430391 -0.022431174 -0.08674484
0.064180166 0.06823441 0.058887206 -0.19286971 -0.5252734 -0.47601488 0.19317864 -0.034045987
0.2323012 -0.18180303 -0.4475004 0.22238691 0.08060585 -0.110974915 -0.06629295 -0.068724
0.15117325 0.02108219 0.080280215 0.35038102 -0.057619113 0.2902352 -0.35790876 -0.08853905
-0.4516482 -0.167299 -0.06767655 -0.20613085 0.07936075 0.19449502 -0.10352711 0.09592898
0.09218318 -0.36230883 0.016721664 -0.19407815 -0.074330494 0.10233597 -0.23336078 -0.23855013

fc3.bias f4 [4]
00000000: 2137 4bbd c4c5 7abd 2592 afbd 26ad b1bd
-0.049613122 -0.06122376 -0.08572797 -0.086756036
