checkpoint_critic.pth (torch_old, 542662 bytes, 5 tensors)

fcs1.weight f4 [400, 33]
-0.008255169 -0.00019757949 -0.07603834 0.005046598 0.0067611304 -0.008189586 0.0020456163 0.005472862
-0.015671525 -0.030922705 -0.0101635335 0.0025401325 -0.017721469 -0.0005090162 0.04485684 -0.0010670439
-0.009685805 -0.004006282 -0.002683216 0.00033970564 0.010564355 -0.016932605 0.008105644 0.00055415655
0.010547585 -0.007901665 -0.0049018236 -0.008527607 0.07320118 -5.9973e-41 0.008527607 -1.02382e-40
0.10331123 0.0058484827 0.050368655 -0.0008838217 -0.0018800759 -0.0055973665 -0.0012983062 -0.013562033
-0.0060366252 0.00091668713 -0.0005194576 0.007166426 0.01869091 0.00025704916 0.019070027 -0.00087725173
0.018515343 0.009379168 0.00200883 0.008135736 -0.0013954433 0.028368773 -0.032799818 0.006399253
0.0038157925 0.0021061967 0.004232681 0.0037263145 0.018607216 -0.02856655 9.9908e-41 -0.018607216
-1.2408e-41 0.0709199 0.012485624 -0.053061094 -0.006299355 0.008169148 0.0035879568 -0.0019626555
-0.011496367 -0.010832704 -0.0030054902 -0.0029289632 0.0054517663 -0.018650852 -0.0068423073 0.00041445956
0.04065038 0.0003739898 -0.004501907 0.0018471545 0.0057139467 0.0020900823 0.0055576987 -0.0119368285
-0.012250264 0.051856384 0.019231582 -0.02538956 -0.0007361833 -0.016012616 -0.010723957 -3.274e-41
0.016012616 -5.7733e-41 0.016150529 -0.022898264 -0.019347532 -0.00080037705 -0.0013845594 -0.008823375
-0.0008284182 -0.011569065 0.0019430482 -0.0049326792 -0.007911199 0.010292487 -0.008039852 0.015975991
0.021207638 0.007777679 0.0005641887 0.010894162 -0.0029791147 0.0032641592 -0.0039901165 -0.013796692
0.0012643784 -0.007301474 0.01165674 0.009555088 0.012679313 0.052473083 -0.01167897 0.014689179
1.45867e-40 0.01167897 -5.4749e-41 -0.023223605 0.0027119985 0.046553083 0.03691757 -0.0036166154
-0.0055874535 0.0028336665 -0.0022474062 -0.003242352 0.008965533 -0.0048939153 0.0060466384 0.020527491
0.0013122299 -0.027425524 0.02223999 -0.020140754 -0.001904722 -0.002009624 0.0042177546 -0.004095885
0.0047014756 0.010240782 -0.023782084 0.015859691 0.021962075 -0.023902196 -0.022978812 0.007164806
0.04740688 3.0831e-41 -0.007164806 7.5541e-41 -0.024375679 0.00077798695 0.0035056234 -0.00091699575
-0.00212837 0.00032733625 -0.0005820633 0.00073778204 -0.001710072 -0.0007162606 -0.00062898546 6.288115e-05
0.0011035411 0.00046514397 0.0009690378 0.0042329635 -0.0008100821 0.0012888537 -0.00061614136 0.00031840554
-0.0014106621 -0.0005874088 0.00075313315 0.0012310294 -0.0004132468 -0.0005893874 7.53844e-05 0.0009657879
0.0033204753 0.000112108406 -1.44704e-40 -0.0033204753 -5.9985e-41 -0.0010356421 0.009066896 -0.007960723
0.015920233 0.008084875 -0.008664673 0.0027924886 -0.002711222 -0.0065942705 -0.0019054607 0.010551546
0.0002624797 0.011894616 -0.0020480754 -0.009609724 0.0030251874 -0.0076639513 0.0004645603 -0.0006744431
-0.0013120675 -0.0026543352 -0.023852635 0.0058393907 -0.009615108 -0.029914077 -0.008107693 -0.007579177
0.0058810213 0.04117551 -0.021562371 9.0043e-41 -0.04117551 4.0597e-41 -0.12865058 0.0002460794
0.001681041 0.00039918293 -0.00024131987 3.887173e-05 0.0001516082 0.00020856428 -0.00015217403 0.00015050011
0.00035601502 -0.00048658525 0.00011971059 -0.00067609426 0.00026027812 0.0016219728 -0.000100717705 9.273528e-05
-0.00013228203 6.778098e-05 -0.00017085554 -0.000660114 0.0005200316 0.00010146553 9.7486e-06 -0.00025520305
00000000: b040 07bc 572d 4fb9 fdb9 9bbd ef5d a53b
00000010: 798c dd3b 9d2d 06bc bf0f 063b b255 b33b
00000020: 9261 80bc 9d51 fdbc f384 26bc 5a78 263b
00000030: 9d2c 91bc 806f 05ba cebb 373d 0ddc 8bba
00000040: 36b1 1ebc 2147 83bb e5d8 2fbb 851a b239
00000050: 1e16 2d3c 3fb6 8abc 89cd 043c d144 113a
00000060: c7cf 2c3c fc75 01bc 7a9f a0bb 60b7 0bbc
00000070: 80ea 953d 2ea7 0080 60b7 0b3c 661d 0180
00000080: d794 d33d a1a4 bf3b 5d4f 4e3d 45b0 67ba
00000090: e16c f6ba 1d6a b7bb ed2b aaba 4a33 5ebc
000000a0: e2ce c5bb d54d 703a 362c 08ba 57d4 ea3b
000000b0: ae1d 993c 8ec4 8639 bf38 9c3c 5ef7 65ba
000000c0: 7dad 973c 15ab 193c 93a6 033b c04b 053c
000000d0: 4fe7 b6ba a165 e83c 1a59 06bd d3b0 d13b
000000e0: 6012 7a3b 1e08 0a3b 4db2 8a3b 2f35 743b
000000f0: 296e 983c 6604 eabc 8116 0100 296e 98bc
00000100: 9722 0080 743e 913d 8190 4c3c 9756 59bd
00000110: d26a cebb e4d7 053c ed23 6b3b e59f 00bb
00000120: 425b 3cbc a77b 31bc c2f7 44bb d9f3 3fbb
00000130: bba4 b23b acc9 98bc 6f35 e0bb d24b d939
00000140: 0381 263d 1014 c439 bc84 93bb 381c f23a
00000150: 0f3c bb3b c3f9 083b 5b1d b63b b092 43bc
00000160: 55b5 48bc 5c67 543d 8d8b 9d3c c4fd cfbc
00000170: 6dfc 40ba e42c 83bc 89b3 2fbc 445b 0080
00000180: e42c 833c f0a0 0080 1d4e 843c 2495 bbbc
00000190: b77e 9ebc 65d0 51ba 1b7a b5ba eb8f 10bc
000001a0: 342a 59ba 2d8c 3dbc e1ad fe3a 50a2 a1bb
000001b0: f99d 01bc d2a1 283c 95b9 03bc 15e0 823c
000001c0: a4bb ad3c e6db fe3b 10e6 133a 6d7d 323c
000001d0: 403d 43bb 81eb 553b 86bf 82bb 850b 62bc
000001e0: 80b9 a53a 3441 efbb e9fb 3e3c f28c 1c3c
000001f0: e5bc 4f3c 04ee 563d 2759 3fbc e2aa 703c
00000200: 9e96 0100 2759 3f3c 9e98 0080 6e3f bebc
00000210: c9bb 313b 72ae 3e3d e136 173d bd04 6dbb
00000220: f516 b7bb 09b5 393b 3849 13bb a47d 54bb
00000230: 2ce4 123c 235d a0bb e122 c63b 4529 a83c
00000240: 21ff ab3a 7eab e0bc a430 b63c 39fe a4bc
00000250: dda7 f9ba e5b3 03bb 1735 8a3b c636 86bb
00000260: d60e 9a3b f4c8 273c a5d2 c2bc 2fec 813c
00000270: cfe9 b33c 8ace c3bc 103e bcbc c0c6 ea3b
00000280: b72d 423d f255 0000 c0c6 eabb 94d2 0000
00000290: 81af c7bc d2f1 4b3a 9abe 653b 8b62 70ba
000002a0: 207c 0bbb 549e ab39 9b95 18ba b767 413a
000002b0: 7f24 e0ba 6fc3 3bba 80e2 24ba 0fdf 8338
000002c0: b2a4 903a 91de f339 0707 7e3a acb4 8a3b
000002d0: b15b 54ba c1ee a83a 8c84 21ba abef a639
000002e0: f7e5 b8ba 56fc 19ba e96d 453a 7e5a a13a
000002f0: 0ca9 d8b9 1e81 1aba b117 9e38 ee2c 7d3a
00000300: 559c 593b be1b eb38 6093 0180 559c 59bb
00000310: 37a7 0080 62be 87ba 518d 143c b16d 02bc
00000320: 266b 823c 6c76 043c 46f6 0dbc 2f02 373b
00000330: c2ae 31bb c014 d8bb a7c0 f9ba 64e0 2c3c
00000340: 6e9d 8939 a3e1 423c 0139 06bb 1b72 1dbc
00000350: 3942 463b e221 fbbb 3a90 f339 1ccd 30ba
00000360: aef9 abba 5bf4 2dbb 9a66 c3bc 5c58 bf3b
00000370: b088 1dbc 5e0e f5bc 21d6 04bc bf5a f8bb
00000380: 95b5 c03b a7a7 283d 92a3 b0bc 01fb 0000
00000390: a7a7 28bd 2b71 0000 fabc 03be 3804 8139
000003a0: 6056 dc3a 6d49 d139 cf0a 7db9 340a 2338
000003b0: 04f9 1e39 0cb2 5a39 e890 1fb9 91cf 1d39
000003c0: 87a7 ba39 5e1c ffb9 220d fb38 eb3b 31ba
000003d0: f075 8839 6098 d43a 6838 d3b8 e07a c238
000003e0: 30b5 0ab9 a325 8e38 af27 33b9 800b 2dba
000003f0: bb52 083a e4c9 d438 eb8d 2337 c6cc 85b9

fcs1.bias f4 [400]
0.0085275965 -0.018607222 0.016012616 0.011678971 -0.0071648033 -0.0033204749 -0.041175485 -0.0008482128
-0.002306039 -0.0102351485 -0.005183293 -0.011310641 -0.031757552 -0.0013189398 0.0037840726 -0.009882579
-0.0017086429 0.0034438756 -0.0031096116 -0.0024902183 -0.0019995933 -0.0021663748 -0.0012612885 0.028314702
-0.004643858 -0.0013002984 0.0370821 -0.0009523769 -0.0013489395 -0.0028689967 -0.0015117903 -0.00070756045
-0.014638266 -0.01844369 0.03238985 -0.0024378917 -0.0041549206 -0.045431193 -0.0008942631 -0.0010371185
-0.011038822 -0.049231704 -0.0009135326 -0.0022216013 -0.012891631 -0.0071497895 -0.002937273 -0.00094283716
-0.00022795102 -0.0023657824 -0.005189832 -0.0011609355 0.004387707 -0.0023024476 0.03469395 -0.07123914
-0.001034141 -0.0061261607 -0.0007202916 -0.011140001 -0.023607003 -0.0009845314 -0.00033434568 -0.00208993
-0.0007035187 -0.0024749667 -0.0027550613 -0.02606669 0.005459298 -0.0010718716 -0.0055631823 -0.002357609
-0.027607959 -0.0011208926 -0.015598367 -0.027396932 -0.009554149 -0.0032433434 -0.0006702187 -0.01751318
-0.01731517 -0.0006882698 -0.0016602007 -0.0012992842 -0.043236896 -0.0010056397 -0.00079637975 -0.0128282
-0.015471876 -0.00060373906 -0.027346151 -0.040208254 0.0057973545 -0.0005959287 -0.038571805 -0.031935528
-0.0009029665 -0.00101598 -0.054705072 0.010721429 -0.0011672694 -0.0029296728 -0.016304798 -0.0009436917
-0.003576547 -0.003632422 -0.0018052737 -0.0065346146 -0.0032388496 0.005787532 0.024416635 0.0013520749
-0.00089727575 -0.0040962454 0.0021535694 -0.023310557 -0.021987647 -0.004811429 0.0147962 -0.041649528
-0.002702063 -0.0010226438 -0.0014640818 0.01567113 -0.04738521 -0.00054228015 -0.0007344107 -0.0044364785
-0.002538463 0.0047757775 -0.0012142442 -0.004421171 -0.012445546 -0.0019255057 -0.001139797 0.030543793
-0.0014542895 -0.0017968134 0.025259927 -0.03713978 -0.0024817556 -0.0052312594 0.05281983 -0.0048315697
0.016273202 -0.0025541016 -0.0015987387 -0.014674712 -0.0025924004 -0.015589948 -0.005136034 -0.03596311
-0.005783224 -0.0023160581 -0.0051445826 -0.000945157 -0.042036686 -0.0020574478 -0.0052359765 0.033767305
-0.07035929 -0.015417698 -0.011149537 -0.00143096 -0.001429977 -0.0012911498 -0.017436745 -0.0009790718
-0.00060158514 -0.0020217672 0.02098225 -0.002053815 -0.031159546 -0.0011944246 -0.001438658 -0.013245193
-0.030583546 -0.0018243936 -0.07189455 0.0018901885 -0.0039067077 -0.008639834 -0.0006375744 -0.0013281169
-0.0033702545 -0.03496932 -0.00047453522 -0.012750699 -0.08762189 -0.0005835869 -0.0013824037 -0.0024947347
0.001952039 -0.0025961837 -0.0021478743 -0.001236521 -0.0015967495 -0.001577595 -0.0017153105 -0.0007013458
-0.025184931 -0.0029760299 -0.0013837303 -0.0009894846 -0.0027502687 -0.0042984313 0.028649552 -0.0011976011
-0.00048999797 -0.0010696371 -0.021101978 -0.0045033684 -0.0112115145 -0.013185227 -0.0033699025 -0.01371024
-0.000996712 -0.001332895 -0.0066450643 -0.001233959 0.017073037 -0.017522799 -0.003407624 -0.001499379
-0.0007739328 -0.0012235033 -0.0017735104 0.0059919357 -0.008300829 -0.00076827704 -0.01248115 -0.014384724
-0.022372171 -0.009894557 -0.0012528122 -0.0012083002 -0.002205458 -0.0010127521 -0.025775565 0.034170333
-0.0012634682 -0.025960196 -0.037740804 -0.003977247 -0.001485383 0.012162741 -0.0022157768 -0.012110947
-0.015474238 -0.024956426 0.020063734 -0.0008174276 -0.001347706 0.0068672486 -0.002294581 -0.0016133692
00000000: 55b7 0b3c 2c6e 98bc e42c 833c 2859 3f3c
00000010: bac6 eabb 539c 59bb a0a7 28bd 995a 5eba
00000020: ea20 17bb 53b1 27bc 9dd8 a9bb 4450 39bc
00000030: 3514 02bd 47e0 acba 34fe 773b 8aea 21bc
00000040: 8bf4 dfba a5b2 613b a0ca 4bbb ee32 23bb
00000050: 9c0b 03bb bdf9 0dbb d251 a5ba 3cf4 e73c
00000060: 812b 98bb c66e aaba 66e3 173d efa8 79ba
00000070: e6ce b0ba c705 3cbb 4427 c6ba 947b 39ba
00000080: 56d5 6fbc 3917 97bc 38ab 043d 09c5 1fbb
00000090: 0026 88bb 0f16 3abd fb6c 6aba ecef 87ba
000000a0: 2ddc 34bc 2fa7 49bd 237a 6fba 4998 11bb
000000b0: 6b37 53bc c848 eabb 437f 40bb bb28 77ba
000000c0: 2306 6fb9 3e0b 1bbb 770f aabb 882a 98ba
000000d0: c1c6 8f3b a9e4 16bb 3e1b 0e3d d4e5 91bd
000000e0: 048c 87ba f6bd c8bb f3d1 3cba 8d84 36bc
000000f0: 7963 c1bc 640b 81ba 1e4b afb9 35f7 08bb
00000100: 576c 38ba 0d33 22bb 428e 34bb d089 d5bc
00000110: e9e3 b23b 0b7e 8cba 5b4b b6bb 1e82 1abb
00000120: 162a e2bc eaea 92ba 4b90 7fbc 886f e0bc
00000130: 0189 1cbc 468e 54bb 9eb1 2fba cd77 8fbc
00000140: 8bd8 8dbc 016d 34ba 179b d9ba be4c aaba
00000150: 2c19 31bd abcf 83ba 24c4 50ba 5f2d 52bc
00000160: c07d 7dbc 3e44 1eba 0905 e0bc 69b1 24bd
00000170: bcf7 bd3b 1938 1cba 78fd 1dbd d4ce 02bd
00000180: 0eb5 6cba a22a 85ba 6d12 60bd efa8 2f3c
00000190: 10ff 98ba c1ff 3fbb a491 85bc 1462 77ba
000001a0: 8064 6abb ee0d 6ebb ef9e ecba 5220 d6bb
000001b0: e142 54bb 56a5 bd3b 6505 c83c 1b38 b13a
000001c0: 2837 6bba cc39 86bb e622 0d3b c8f5 bebc
000001d0: 701f b4bc 31a9 9dbb c36b 723c b298 2abd
000001e0: 1815 31bb 3b0a 86ba 6fe6 bfba be60 803c
000001f0: fe16 42bd ce27 0eba 7885 40ba e15f 91bb
00000200: 585c 26bb 207e 9c3b 4627 9fba 78df 90bb
00000210: 67e8 4bbc 4061 fcba 3e65 95ba fa36 fa3c
00000220: dc9d beba 0e83 ebba e8ed ce3c e21f 18bd
00000230: f3a4 22bb fc6a abbb 9b59 583d 2552 9ebb
00000240: 614f 853c b762 27bb c58c d1ba 346e 70bc
00000250: 43e5 29bb fb6c 7fbc 2d4c a8bb 0e4e 13bd
00000260: 3381 bdbb 02c9 17bb e393 a8bb 6ac4 77ba
00000270: a92e 2cbd 3fd6 06bb 8e92 abbb 964f 0a3d
00000280: 8818 90bd 839a 7cbc 8cac 36bc 0d8f bbba
00000290: 116e bbba cc3b a9ba 81d7 8ebc 3354 80ba
000002a0: b2b3 1dba a07f 04bb f8e2 ab3c 4c99 06bb
000002b0: 4e42 ffbc 3d8e 9cba 5a91 bcba 5e02 59bc
000002c0: 588a fabc 7e20 efba 733d 93bd 34c0 f73a
000002d0: d703 80bb 178e 0dbc e522 27ba 3514 aeba
000002e0: 7ddf 5cbb fd3b 0fbd 0acb f8b9 4fe8 50bc
000002f0: 1b73 b3bd dbfb 18ba c531 b5ba b47e 23bb
00000300: 8fdb ff3a bc24 2abb 5ac3 0cbb c312 a2ba
00000310: 064a d1ba 4ec7 ceba 45d4 e0ba 85da 37ba
00000320: a150 cebc 7f09 43bb 495e b5ba 98b1 81ba
00000330: da3d 34bb dbd9 8cbb 77b2 ea3c d3f8 9cba
00000340: 3573 00ba 1133 8cba 0ede acbc fe90 93bb
00000350: 80b0 37bc da06 58bc 95d9 5cbb eaa0 60bc
00000360: 1ba4 82ba 89b4 aeba d7be d9bb cbbc a1ba
00000370: c1dc 8b3c f98b 8fbc 7252 5fbb d086 c4ba
00000380: c0e1 4aba f55d a0ba 2275 e8ba 0058 c43b
00000390: 3300 08bc 3366 49ba bd7d 4cbc e8ad 6bbc
000003a0: d845 b7bc c81c 22bc 6735 a4ba d45f 9eba
000003b0: 7289 10bb 52be 84ba 4727 d3bc 31f6 0b3d
000003c0: f59a a5ba 7aaa d4bc 1a96 1abd 9153 82bb
000003d0: 2fb1 c2ba 3c46 473c 9136 11bb fe6c 46bc
000003e0: a987 7dbc 6b71 ccbc b35c a43c a348 56ba
000003f0: 82a5 b0ba a806 e13b ae60 16bb b077 d3ba

fc2.weight f4 [300, 404]
-1.8984982e-06 -9.710807e-09 -2.3529503e-06 -6.889999e-06 1.5865612e-09 1.07347575e-10 1.123393e-07 -4.0935838e-10
-1.9611981e-07 -7.5915764e-08 5.2684046e-10 -2.1549423e-07 3.7829766e-09 3.600813e-11 -1.3758387e-07 -4.1374007e-10
-3.74749e-11 -1.992196e-06 4.1490478e-10 -4.8615423e-09 -1.0142229e-09 -3.729713e-12 1.1840842e-11 -1.4442022e-06
3.4210708e-09 7.284128e-11 -4.233699e-06 6.9810956e-11 1.1718963e-11 -1.9050975e-06 -2.1054092e-11 1.4814363e-12
2.802264e-07 1.0902144e-07 -5.1757115e-06 4.9570008e-11 -6.4661315e-10 -1.5018743e-06 5.8021903e-11 1.7764382e-11
-9.3031304e-07 -4.663945e-07 -6.4847006e-10 3.7955192e-07 -8.6203914e-07 -5.888523e-07 -2.0927487e-11 6.3042405e-11
1.0156155e-11 9.569406e-11 -6.835336e-08 -2.272921e-11 7.503236e-07 1.6068671e-10 -5.6637905e-06 4.3443205e-07
2.6216048e-11 2.4414312e-08 2.5101346e-11 5.6522538e-08 6.262086e-08 -1.9984993e-10 5.7842737e-12 -1.3732674e-12
-2.9634566e-11 7.0480013e-07 -3.2784409e-09 2.2576366e-07 -1.7653083e-06 -1.0380723e-11 -6.291467e-07 7.82994e-11
6.5002252e-09 1.7283038e-11 3.0896082e-08 -2.2502307e-07 -1.1237448e-06 -5.9351226e-12 3.910128e-11 -3.4791336e-07
3.6410503e-07 2.3306414e-11 -7.851402e-12 -1.3862804e-09 2.269423e-07 7.252909e-11 1.9175567e-11 -3.2124213e-08
3.5920227e-08 7.603608e-11 1.7458929e-08 -2.7037884e-06 -7.311247e-07 2.9648253e-11 -8.827405e-10 3.274765e-08
-8.543403e-12 2.6584401e-11 -1.1728097e-06 -1.1012243e-06 -8.5606466e-11 9.079889e-11 2.648005e-07 7.1821034e-12
-2.5555983e-07 -1.2920957e-09 9.6690836e-11 4.768455e-08 1.534113e-07 1.6745463e-07 -4.128015e-06 -5.602822e-10
1.2386894e-11 -1.4529863e-06 5.8625003e-09 2.1028205e-07 -2.6452895e-07 7.451947e-10 -3.009744e-07 -5.148758e-07
2.5169295e-11 7.016763e-17 -1.9250051e-11 -2.8166019e-06 7.754474e-07 -6.56244e-12 7.596683e-11 4.488678e-07
3.452237e-13 -1.1689389e-06 -1.2744784e-09 -4.2490115e-08 -2.6140995e-06 -1.7916385e-07 -2.644061e-09 -6.8489106e-07
9.414617e-12 -1.4944908e-10 -4.9250156e-07 2.0636865e-07 7.49448e-11 -4.494212e-06 -1.5367366e-06 1.4967794e-07
-1.5547204e-06 1.4331971e-07 -4.7886765e-13 1.1051155e-06 -5.4290496e-12 7.2235096e-08 3.772188e-07 -7.909173e-09
4.352196e-07 7.444746e-11 1.227753e-08 -2.7269703e-12 2.8173734e-08 1.186274e-10 -2.0229e-06 -2.7118954e-06
-6.8099627e-07 -1.4033436e-06 -9.415377e-08 -1.4865867e-11 -2.2807964e-11 6.606452e-07 6.5027535e-08 5.4583803e-11
1.6882764e-11 -5.026697e-11 -8.2012457e-07 4.5383385e-11 6.8931534e-08 -7.710238e-11 -2.9428848e-11 -6.527392e-08
-1.8210103e-06 -9.8093825e-12 1.374871e-09 -1.7722418e-06 -3.4442431e-09 -3.9830454e-09 2.0742862e-11 -1.2591311e-09
1.8356819e-10 1.7104194e-09 1.6072357e-07 -9.057045e-09 -3.1460922e-07 6.5525437e-12 1.592706e-11 -1.5335308e-11
-2.9794348e-06 1.4802869e-10 -1.2222981e-11 7.244126e-11 -4.5698653e-10 -1.8959327e-09 -1.0301555e-11 6.100537e-11
3.684103e-08 4.8099785e-08 1.719905e-10 -2.201197e-11 -2.2338364e-11 4.6521248e-07 -4.2646386e-07 4.2552282e-13
3.1315815e-11 1.1271836e-10 1.5426089e-07 9.0568767e-07 -3.244287e-08 -1.2395003e-06 -1.7389867e-07 -1.3850472e-06
-2.1783193e-11 -4.907356e-11 -2.6351495e-07 1.2212149e-12 -4.080701e-06 -7.3341376e-08 3.0544095e-10 3.6057345e-11
-2.5625516e-07 2.8663421e-12 -2.7128228e-11 7.1553234e-07 -4.7134196e-07 5.91398e-11 -1.0610123e-06 -5.044036e-09
5.77505e-10 -5.199242e-08 5.393096e-11 3.6835004e-11 -1.8208527e-12 1.2091705e-11 1.6978058e-09 -2.3235534e-06
-8.023871e-12 -4.03791e-07 -1.8038034e-07 8.856138e-15 1.626024e-11 -2.469788e-07 -2.0893929e-06 -2.909037e-08
-2.468494e-09 -9.479497e-10 -1.2466664e-06 2.2214659e-11 -2.0855847e-11 8.309393e-07 -1.9462616e-11 1.5466654e-10
00000000: e7cf feb5 95d4 26b2 61e7 1db6 a430 e7b6
00000010: 290e da30 500f ec2e 2f3f f133 120c e1af
00000020: 0195 52b4 2207 a3b3 1ad1 1030 9a62 67b4
00000030: 6afb 8131 8d5d 1e2e c4ba 13b4 bd74 e3af
00000040: fdd0 24ae abb1 05b6 a818 e42f 940a a7b1
00000050: cc64 8bb0 453a 83ac 694e 502d 69d6 c1b5
00000060: 1d18 6b31 ff2d a02e 330f 8eb6 1384 992e
00000070: 8429 4e2d a7b2 ffb5 9a31 b9ad 5e7e d02b
00000080: 0672 9634 2c1f ea33 06ab adb6 de02 5a2e
00000090: 5bbd 31b0 0294 c9b5 db2e 7f2e d541 9c2d
000000a0: a0ba 79b5 c664 fab4 0640 32b0 38c5 cb34
000000b0: e166 67b5 9f11 1eb5 8314 b8ad b8a1 8a2e
000000c0: 42ab 322d f76e d22e a8c9 92b3 a1ed c7ad
000000d0: d869 4935 4aad 302f 970b beb6 e33b e934
000000e0: 4b99 e62d a4b7 d132 35cb dc2d 30c3 7233
000000f0: 2f7a 8633 c1bc 5baf 1b84 cb2c 2c45 c1ab
00000100: 8e55 02ae 7f31 3d35 f14a 61b1 7169 7234
00000110: 88ef ecb5 9f9e 36ad a2e2 28b5 a52e ac2e
00000120: 9658 df31 f105 982d 9ab2 0433 df9d 71b4
00000130: 94d3 96b5 d5d2 d0ac 21f8 2b2e d9c8 bab4
00000140: 377a c334 6101 cd2d 921f 0aad 6887 beb0
00000150: 6dad 7334 3f7e 9f2e 8aab a82d f2f8 09b3
00000160: b546 1a33 8234 a72e 97f8 9532 bb72 35b6
00000170: 8242 44b5 f764 022e 57a5 72b0 6ca6 0c33
00000180: 114c 16ad c0d6 e92d 6f69 9db5 c7cd 93b5
00000190: 2840 bcae 3bab c72e e729 8e34 a3b2 fc2c
000001a0: e033 89b4 9395 b1b0 1aa0 d42e b8cd 4c33
000001b0: 61b9 2434 94cd 3334 6183 8ab6 5b02 1ab0
000001c0: 9ce9 592d 3b04 c3b5 196f c931 e4c9 6134
000001d0: 9504 8eb4 6ad6 4c30 9b95 a1b4 ff35 0ab5
000001e0: 3764 dd2d a8cb a124 4353 a9ad da04 3db6
000001f0: 5728 5035 34e5 e6ac 860d a72e ecfb f034
00000200: fa57 c22a 6fe4 9cb5 b929 afb0 607e 36b3
00000210: e36d 2fb6 2f60 40b4 d0b2 35b1 5bd9 37b5
00000220: aa9f 252d 2d52 24af 7334 04b5 2f96 5d34
00000230: 2cce a42e fdcc 96b6 de41 ceb5 29b7 2034
00000240: c9ab d0b5 6ce3 1934 0dca 06ab 7b53 9435
00000250: 8804 bfac aa1f 9b33 8f84 ca34 e9e0 07b2
00000260: 20a8 e934 32b6 a32e 26ed 5232 bbe4 3fac
00000270: b202 f232 a56e 022f 28c1 07b6 02fe 35b6
00000280: b5cd 36b5 855a bcb5 9531 cab3 f5c2 82ad
00000290: f89e c8ad 3157 3135 44a5 8b33 e60f 702e
000002a0: 9b80 942d 9413 5dae 8826 5cb5 2699 472e
000002b0: 8307 9433 c88c a9ae f06d 01ae b82c 8cb3
000002c0: 7069 f4b5 8891 2cad f9f5 bc30 c4dd edb5
000002d0: c4af 6cb1 3ddb 88b1 c674 b62d bd0d adb0
000002e0: dad5 492f 0814 eb30 5c93 2c34 4e99 1bb2
000002f0: 90e7 a8b4 118c e62c 8d18 8c2d 0be4 86ad
00000300: 4df2 47b6 5fc2 222f 6a07 57ad ce4c 9f2e
00000310: 233b fbaf 9a49 02b1 143a 35ad f826 862e
00000320: 243b 1e33 4696 4e33 061b 3d2f 8d9e c1ad
00000330: 867d c4ad 51c2 f934 bff4 e4b4 4d8c ef2a
00000340: 79ba 092e ccde f72e e9a2 2534 621e 7335
00000350: 5057 0bb3 e85c a6b5 e7b8 3ab4 dce5 b9b5
00000360: 649b bfad ebd3 57ae 3879 8db4 e7de ab2b
00000370: f4ec 88b6 d97f 9db3 feea a72f f694 1e2e
00000380: 7193 89b4 6eb3 492c 579f eead 0213 4035
00000390: bf0c fdb4 bf0c 822e 1b68 8eb5 cf4f adb1
000003a0: 4dbe 1e30 454e 5fb3 dd30 6d2e 8700 222e
000003b0: 9121 00ac 33b8 542d 3b58 e930 58ee 1bb6
000003c0: 4d28 0dad 9dc8 d8b4 92ae 41b4 ba89 1f28
000003d0: ce06 8f2d 8298 84b4 7f37 0cb6 66e2 f9b2
000003e0: 35a2 29b1 0449 82b0 2253 a7b5 f766 c32d
000003f0: 3173 b7ad b70d 5f35 ea31 abad c30e 2a2f

fc2.bias f4 [300]
-1.1863257e-05 -3.6169692e-13 -4.612897e-12 -1.875581e-07 -3.1610874e-08 0.07616174 0.13774802 -4.667968e-16
-4.0900766e-05 0.056241132 -1.3669926e-19 0.045711227 0.04530523 0.058328692 -3.108952e-12 -0.0010104647
0.0438952 -0.0012236504 0.06376139 -4.379639e-07 -1.1109456e-06 0.048091576 0.044726875 -2.9138824e-26
-7.142277e-09 -6.25881e-17 -5.173218e-17 -1.02699e-05 -6.1989476e-06 -4.6661903e-06 -8.927528e-21 -2.9530122e-21
-1.246207e-06 0.05184803 -1.141818e-08 0.057854287 -7.585165e-05 -8.537501e-08 0.048931558 -7.3087643e-09
-2.4243016e-10 -1.6745062e-28 -1.8878732e-31 -1.9990048e-06 -6.134523e-07 0.051081143 -8.2526526e-23 0.045050126
0.122588724 -1.7484503e-05 -1.6343546e-10 -6.9584127e-16 -0.050646648 -2.139737e-08 0.041318897 -4.8672955e-06
-1.4926927e-08 0.036154006 -2.1187038e-15 -2.48232e-19 -0.00013519976 -0.0006122667 -1.694196e-06 0.03885021
0.048093542 -1.0813648e-11 0.07266132 -2.5895318e-26 -8.549069e-05 -1.1096856e-06 0.05101073 -0.0017789983
0.04215866 -1.2909051e-06 0.043814756 -1.2318375e-27 0.04231939 0.037038255 0.051471435 -0.00013504439
0.07433258 0.032914367 -0.00088219205 -1.9368122e-23 0.055902645 0.044284828 -6.400589e-08 -1.4267506e-18
-2.0547127e-10 -7.575156e-20 -0.00075863814 -5.778626e-07 -5.614223e-08 -8.484219e-08 -4.048071e-06 -2.3461061e-11
-7.348042e-06 -0.00027370176 -1.14678496e-10 0.07582468 0.044884104 -1.7859739e-14 0.0424659 0.03121527
-7.2127896e-06 -0.00019000127 -1.6466934e-08 -3.889388e-17 0.041522585 0.031390246 0.04720627 0.05645905
-2.2845652e-11 -0.040482398 0.07252989 0.041130565 -3.6534535e-20 -0.000116443654 0.05117787 -7.830712e-10
-1.513679e-06 -4.811802e-22 0.042802032 -1.6214269e-06 -2.828918e-05 -6.722859e-05 -5.192925e-08 0.033283755
-0.0009636717 0.045452263 -0.00022118333 -7.7225316e-08 -0.0014441556 -8.18649e-11 0.029864736 0.06016689
-3.6191695e-19 -9.044058e-21 0.050379533 -2.4179577e-16 -1.4323539e-06 -6.754608e-09 0.0608591 -6.126157e-05
-0.00016991021 -1.7030696e-05 -4.1630256e-07 -2.0640532e-17 0.04249858 -0.00029960021 0.035063494 -0.012380178
-9.165559e-06 0.06914629 -0.05385688 -0.062392775 0.07946217 0.04972034 -4.366678e-05 -1.5149149e-14
-0.00023360352 -4.406195e-18 -4.5597522e-11 0.066743225 -0.00037637114 -9.0523296e-09 0.036461826 -6.2036895e-07
0.07643968 -1.6390274e-21 -0.00022942304 -4.8850063e-15 -3.2921863e-20 -1.8851331e-05 0.090242624 -0.0002514971
-0.0003577597 -3.9388984e-15 -0.00082639355 0.043348853 0.120633096 -3.9768948e-12 -1.7705278e-12 -0.0011524645
0.03948535 -1.2461421e-06 -5.5284796e-05 -6.593787e-10 -3.5142868e-08 -0.0001629826 -4.6671044e-13 0.04144028
0.045980852 -0.00010357425 0.042033028 -1.7349245e-28 0.04508337 0.042263947 -5.3397682e-11 0.03827047
-5.685255e-17 -2.5514652e-07 -5.117307e-12 0.07078219 -7.6336315e-09 -2.9924252e-07 -9.798993e-06 -4.2198758e-07
0.046742003 -1.5897878e-11 0.064404845 -0.00029197842 -1.5109035e-24 -7.266252e-26 -0.0008824883 0.0483467
-1.251972e-10 0.114489205 -0.00013978174 -2.155581e-09 0.05007982 -0.0015919795 0.03805471 -0.00012896322
0.08501287 -4.478407e-05 -0.00036554848 -3.764844e-11 -0.0012829925 -6.242764e-10 -1.3964996e-12 -3.7351948e-11
-6.1716756e-18 -1.7222106e-10 -1.6141438e-16 0.037898354 -1.9566988e-20 -0.001338605 -2.8838895e-06 0.046841312
-3.0306865e-06 0.07787903 0.055035613 -1.3705196e-12 -4.3908427e-10 -1.0367142e-08 -4.3751188e-23 -3.1327394e-07
-4.397652e-11 -3.4334793e-08 -1.0090296e-06 -0.0011877813 -1.4819062e-05 -0.0011992526 0.043257028 -4.2940047e-09
00000000: 4d08 47b7 059e cbaa 484d a2ac 9463 49b4
00000010: 86c4 07b3 b0fa 9b3d d10d 0d3e 868b 06a6
00000020: dd8c 2bb8 1a5d 663d d162 21a0 b23b 3b3d
00000030: fa91 393d 11ea 6e3d e6c5 5aac 9271 84ba
00000040: 74cb 333d e562 a0ba 5595 823d 4d21 ebb4
00000050: cd1b 95b5 acfb 443d 8733 373d d949 1095
00000060: 2268 f5b1 7e51 90a4 9492 6ea4 e24c 2cb7
00000070: 8e00 d0b6 4592 9cb6 e0a2 289e 901f 5f9d
00000080: 5943 a7b5 9a5e 543d b029 44b2 9ef8 6c3d
00000090: 8b12 9fb8 6857 b7b3 756c 483d 9220 fbb1
000000a0: 0347 85af d544 5491 590f 758c a426 06b6
000000b0: 1fac 24b5 763a 513d 7289 c79a 7b86 383d
000000c0: cc0f fb3d afab 92b7 feb2 33af 0690 48a6
000000d0: dc72 4fbd 50cd b7b2 013e 293d c051 a3b6
000000e0: a938 80b2 3916 143d 30ab 18a7 c287 92a0
000000f0: 69c4 0db9 8680 20ba 2264 e3b5 6621 1f3d
00000100: bcfd 443d 573c 3ead 75cf 943d 373a 0095
00000110: 7749 b3b8 82f0 94b5 a1f0 503d 472d e9ba
00000120: 8fae 2c3d 2943 adb5 1a77 333d 4431 c392
00000130: 1957 2d3d 6db5 173d b6d3 523d b49a 0db9
00000140: ae3b 983d 37d1 063d e842 67ba 2651 bb99
00000150: 2cfa 643d 0264 353d 9c73 89b3 1d8d d2a1
00000160: 05eb 61af 02dd b29f 58df 46ba 6a1e 1bb5
00000170: 0921 71b3 7d32 b6b3 aad4 87b6 9d5d cead
00000180: 338f f6b6 a17f 8fb9 412e fcae f849 9b3d
00000190: 65d8 373d c1dd a0a8 b9f0 2d3d 2ab7 ff3c
000001a0: 6405 f2b6 143b 47b9 2c73 8db2 ca5d 33a4
000001b0: 9613 2a3d 0f93 003d 5d5b 413d 9b41 673d
000001c0: d6f3 c8ad dfd0 25bd 8d8a 943d 8678 283d
000001d0: 8b87 2c9f 3633 f4b8 e39f 513d bd3f 57b0
000001e0: 9d29 cbb5 846d 119c 2f51 2f3d ce9f d9b5
000001f0: 8d4e edb7 13fd 8cb8 d008 5fb3 8c54 083d
00000200: ea9e 7cba 272c 3a3d 73ed 67b9 11d7 a5b3
00000210: d249 bdba d705 b4ae e4a6 f43c 8f71 763d
00000220: 58a3 d5a0 62d6 2a9e c55a 4e3d c262 8ba5
00000230: 4e3f c0b5 2916 e8b1 6447 793d 8e79 80b8
00000240: ed29 32b9 24dd 8eb7 3080 dfb4 1460 bea3
00000250: fe12 2e3d a913 9db9 bd9e 0f3d 3bd6 4abc
00000260: c7c5 19b7 929c 8d3d 0899 5cbd 918f 7fbd
00000270: 10bd a23d 8ea7 4b3d d926 37b8 8f73 88a8
00000280: 78f3 74b9 568f a2a2 3f8a 48ae acb0 883d
00000290: ae53 c5b9 9184 1bb2 ff58 153d 6e87 26b5
000002a0: 688c 9c3d cdae f79c 4791 70b9 3b00 b0a7
000002b0: 1778 1b9f ed22 9eb7 20d1 b83d 5fdb 83b9
000002c0: b291 bbb9 ede9 8da7 55a2 58ba 918e 313d
000002d0: 7c0e f73d afec 8bac fd2d f9ab 4b0e 97ba
000002e0: 64bb 213d 1e41 a7b5 99e1 67b8 a73f 35b0
000002f0: feef 16b3 4fe6 2ab9 085e 03ab 48bd 293d
00000300: 6b56 3c3d 0136 d9b8 d32a 2c3d 85ed 5b91
00000310: 57a9 383d f61c 2d3d 72d8 6aae 7fc1 1c3d
00000320: d217 83a4 12fb 88b4 9b0c b4ac 41f6 903d
00000330: 1125 03b2 94a7 a0b4 5b66 24b7 888d e2b4
00000340: 8b74 3f3d d7d6 8bad b0e6 833d ae14 99b9
00000350: 0ecd e997 58e7 b395 ca56 67ba 3007 463d
00000360: e1a7 09af 5179 ea3d 6092 12b9 6221 14b1
00000370: 7f20 4d3d f8a9 d0ba 41df 1b3d 4d3a 07b9
00000380: 3a1b ae3d 87d6 3bb8 16a7 bfb9 6094 25ae
00000390: 162a a8ba 8c99 2bb0 338a c4ab 8e46 24ae
000003a0: d4b1 e3a2 eb5b 3daf 1e19 3aa5 4e3b 1b3d
000003b0: 13ce b89e 2174 afba d888 41b6 addc 3f3d
000003c0: cc62 4bb6 0a7f 9f3d 066d 613d 2ce2 c0ab
000003d0: 9e63 f1af 2c1b 32b2 5991 539a 0b30 a8b4
000003e0: 2969 41ae 8177 13b3 fe6d 87b5 54af 9bba
000003f0: 639f 78b7 3d30 9dba 482e 313d 778a 93b1

fc3.weight f4 [1, 300]
1.5476566e-05 -5.265899e-08 0.0001805558 -7.1883726e-08 -5.977898e-06 0.18279709 0.2047606 3.2430528e-06
-0.0015629157 0.24136841 -1.068339e-08 0.26759693 0.27831706 0.26152262 -7.0757786e-05 -0.0008916114
0.25656447 0.0009155267 0.27707294 1.0328818e-05 0.00022679758 0.25792256 0.24112207 4.1358428e-05
4.155767e-09 2.5844436e-06 -1.8000478e-06 -1.3779966e-05 -3.001217e-05 -3.993565e-06 1.0789264e-05 -2.6425896e-05
-8.0219667e-07 0.28885037 -9.850878e-05 0.26608494 -6.688324e-05 7.914951e-05 0.26620698 0.00035171147
-4.8599348e-05 -1.6108163e-07 2.2434143e-10 -0.0001823279 0.00035025654 0.25392404 -0.00012566123 0.21985406
0.20823844 1.7861368e-05 5.669696e-05 4.2752807e-05 -0.24962765 -8.872982e-05 0.2301965 2.6378058e-05
-0.00010156982 0.20411268 2.9733397e-05 3.5680958e-05 -0.00020894356 0.00019168261 -0.00012702294 0.2537702
0.25373122 -2.9981018e-06 0.23786485 1.628232e-05 0.00010236419 -5.427972e-05 0.28820264 0.00091763685
0.23356412 2.7823546e-05 0.24075152 1.0298104e-05 0.24744593 0.24876682 0.24821669 -0.00010274145
0.24532734 0.24809766 0.00021273752 1.4481801e-06 0.2881388 0.26468247 1.4406386e-07 -4.816244e-06
0.00015450877 9.745886e-05 0.00011959294 0.00025867095 -0.00024836836 3.5940957e-06 -0.0001758456 -2.5714435e-05
0.00033365772 0.00014922788 -7.587073e-05 0.22176953 0.25310728 -0.00019874261 0.22704454 0.29473105
-2.3358834e-06 7.748627e-05 0.0003424532 -1.6430191e-06 0.21886061 0.214518 0.26787293 0.21233131
-1.5786346e-06 -0.24185918 0.1999084 0.22976586 4.062057e-05 -0.00081313925 0.2629072 9.564043e-06
0.0001945287 2.8316814e-05 0.23028857 -2.182521e-06 -2.146567e-05 -0.0003744655 6.8540474e-05 0.25792193
0.0017268207 0.27115563 -0.00015234548 0.000117232936 -1.4954866e-05 2.2861224e-05 0.22637965 0.21161707
1.1877343e-05 1.5376852e-05 0.27587563 -4.96886e-05 -0.00042939087 -0.00011843173 0.24673387 -0.00014592723
-0.00011050132 3.850573e-05 -0.00045017607 1.8820025e-05 0.21747474 0.0005123581 0.22200023 -0.22083351
-5.8894752e-06 0.2291202 -0.23858234 -0.30311707 0.2528781 0.2411096 2.5114196e-06 1.1443434e-05
0.00024014967 3.883115e-07 -2.3830557e-05 0.24726634 -0.00015909855 0.00028054835 0.26095802 -6.2182386e-05
0.20368731 -1.2957843e-05 0.00073534687 4.6858408e-05 1.2753209e-06 3.271881e-05 0.21005495 -0.00024033629
0.0005656158 -9.4664094e-05 0.0006472346 0.2610084 0.16001548 -0.0004179984 3.806631e-06 0.0005198023
0.22002529 2.0292491e-06 -8.347686e-05 -6.084801e-05 0.0002474019 -4.622415e-05 0.00020820937 0.29381457
0.24889292 0.00092004245 0.26163822 -1.1653616e-05 0.24631503 0.25563198 7.599691e-06 0.2642181
-2.3433498e-05 1.508834e-07 3.914947e-06 0.20345321 0.00014984456 0.00016738319 -2.496579e-05 0.00027281913
0.25712574 -0.00017305074 0.21195704 -0.00094364455 -9.957895e-06 -3.0888557e-07 0.0011797806 0.27575064
-8.344639e-05 0.22284229 -0.0004974454 2.9216565e-07 0.2579455 -0.00060108106 0.19233362 5.1095853e-05
0.15340324 0.00011998443 0.00048684204 0.00017192592 0.00068041374 -0.00016586641 0.00011364238 0.0002706005
-2.0213045e-08 -3.076416e-05 -0.000100366145 0.26783147 3.337471e-07 0.00018086762 4.947602e-07 0.2575204
0.0001922646 0.1952478 0.24715559 -1.7472136e-06 0.0001840212 5.4287404e-05 -1.1617145e-05 0.00011331836
-5.353402e-11 -2.4078336e-05 1.03006905e-05 -0.0017030352 -0.0007901108 -0.0011898385 0.28948256 0.00010979915
00000000: acd3 8137 2c2b 62b3 9453 3d39 7f5e 9ab3
00000010: c195 c8b6 292f 3b3e c3ac 513e 39a3 5936
00000020: c0da ccba 4829 773e 0c8a 37b2 7702 893e
00000030: 937f 8e3e 4be6 853e cc63 94b8 07bb 69ba
00000040: 6b5c 833e f5ff 6f3a 81dc 8d3e ef49 2d37
00000050: 83d0 6d39 6d0e 843e b4e8 763e 4678 2d38
00000060: 83ca 8e31 6770 2d36 2c99 f1b5 8130 67b7
00000070: a5c2 fbb7 7600 86b6 8903 3537 2ead ddb7
00000080: 8956 57b5 32e4 933e 8096 ceb8 493c 883e
00000090: ab43 8cb8 12fd a538 484c 883e ea65 b839
000000a0: 27d7 4bb8 c8f5 2cb4 80aa 762f 462f 3fb9
000000b0: a3a2 b739 5502 823e eec3 03b9 6c21 613e
000000c0: 753c 553e ffd4 9537 e6cd 6d38 7a51 3338
000000d0: 649e 7fbe 7614 bab8 a2b8 6b3e 7346 dd37
000000e0: e201 d5b8 ea02 513e fc6b f937 23a8 1538
000000f0: dc17 5bb9 69fe 4839 7631 05b9 2bee 813e
00000100: 0fe9 813e ff32 49b6 d892 733e 0496 8837
00000110: 5bac d638 68aa 63b8 4c8f 933e 918d 703a
00000120: 6f2b 6f3e 9c66 e937 9187 763e 05c6 2c37
00000130: 7762 7d3e bbbc 7e3e 842c 7e3e e576 d7b8
00000140: 1737 7b3e 500d 7e3e 4b12 5f39 175f c235
00000150: ee86 933e 7684 873e f9af 1a34 399b a1b6
00000160: a203 2239 d462 cc38 f9cd fa38 3a9e 8739
00000170: 7037 82b9 1832 7136 3263 38b9 54b5 d7b7
00000180: c8ee ae39 0e7a 1c39 ca1c 9fb8 8d17 633e
00000190: 4797 813e 9065 50b9 5d7e 683e fde6 963e
000001a0: 2cc2 1cb6 2080 a238 4a8b b339 b585 dcb5
000001b0: ff1c 603e 9baa 5b3e a426 893e 616d 593e
000001c0: 79e1 d3b5 efa9 77be cab4 4c3e be47 6b3e
000001d0: 0160 2a38 da28 55ba c69b 863e 4075 2037
000001e0: 66fa 4b39 e589 ed37 c4d0 6b3e 6d77 12b6
000001f0: 2d11 b4b7 e953 c4b9 63bd 8f38 580e 843e
00000200: 7d56 e23a e9d4 8a3e eebe 1fb9 f4da f538
00000210: a9e6 7ab7 1bc6 bf37 11d0 673e 25b2 583e
00000220: cd44 4737 8afd 8037 923f 8d3e ba68 50b8
00000230: de1f e1b9 8d5e f8b8 cea7 7c3e 0b04 19b9
00000240: f2bc e7b8 3681 2138 9c05 ecb9 b2df 9d37
00000250: b3b1 5e3e c54f 063a 0754 633e 2e22 62be
00000260: 359e c5b6 7c9e 6a3e ee4e 74be 2932 9bbe
00000270: 3d79 813e 6fe5 763e dc89 2836 2dfd 3f37
00000280: b0d0 7b39 2079 d034 bbe7 c7b7 6333 7d3e
00000290: b1d3 26b9 9016 9339 4a9c 853e ea67 82b8
000002a0: 6893 503e 8365 59b7 4bc4 403a d589 4438
000002b0: b12b ab35 8e3b 0938 a518 573e c802 7cb9
000002c0: d545 143a 6686 c6b8 2eab 293a e5a2 853e
000002d0: 19db 233e cc26 dbb9 6c75 7f36 5843 083a
000002e0: 4f4e 613e 3c2e 0836 4c10 afb8 0e37 7fb8
000002f0: b9b5 8139 cee0 41b8 c752 5a39 dd6e 963e
00000300: c9dd 7e3e 012f 713a 72f5 853e e683 43b7
00000310: 023a 7c3e 32e2 823e d900 ff36 9847 873e
00000320: 0e93 c4b7 8302 2234 235d 8336 0a56 503e
00000330: 981f 1d39 9583 2f39 a06d d1b7 2a09 8f39
00000340: fca5 833e f474 35b9 440b 593e ea5e 77ba
00000350: d510 27b7 e9d4 a5b4 dea2 9a3a 302f 8d3e
00000360: f1ff aeb8 c530 643e ff66 02ba f1da 9c34
00000370: 6f11 843e de91 1dba 1bf3 443e c14f 5638
00000380: bd15 1d3e 26a0 fb38 d53e ff39 0347 3439
00000390: cb5d 323a 6dec 2db9 4a53 ee38 62df 8d39
000003a0: f5a0 adb2 c408 01b8 aa7b d2b8 3521 893e
000003b0: da2d b334 48a7 3d39 a9cf 0435 b7d9 833e
000003c0: a39a 4939 0aef 473e 5b16 7d3e cd81 eab5
000003d0: d1f5 4039 a8b2 6338 42e7 42b7 55a5 ed38
000003e0: f371 6bae d5fb c9b7 21d1 2c37 6138 dfba
000003f0: 701f 4fba 5bf4 9bba 0f37 943e f843 e638
